…
Found 200 validated image filenames.
2023-08-29 23:46:17.288766: I tensorflow/core/platform/cpu_feature_guard.cc:182] This TensorFlow binary is optimized to use available CPU instructions in performance-critical operations.
To enable the following instructions: SSE SSE2 SSE3 SSE4.1 SSE4.2 AVX AVX2 FMA, in other operations, rebuild TensorFlow with the appropriate compiler flags.
Model: "sequential"
_________________________________________________________________
 Layer (type)                Output Shape              Param #   
=================================================================
 conv2d (Conv2D)             (None, 126, 126, 32)      896       
                                                                 
 conv2d_1 (Conv2D)           (None, 124, 124, 32)      9248      
                                                                 
 batch_normalization (Batch  (None, 124, 124, 32)      128       
 Normalization)                                                  
                                                                 
 max_pooling2d (MaxPooling2  (None, 62, 62, 32)        0         
 D)                                                              
                                                                 
 dropout (Dropout)           (None, 62, 62, 32)        0         
                                                                 
 flatten (Flatten)           (None, 123008)            0         
                                                                 
 dense (Dense)               (None, 64)                7872576   
                                                                 
 dropout_1 (Dropout)         (None, 64)                0         
                                                                 
 dense_1 (Dense)             (None, 5)                 325       
                                                                 
=================================================================
Total params: 7883173 (30.07 MB)
Trainable params: 7883109 (30.07 MB)
Non-trainable params: 64 (256.00 Byte)
_________________________________________________________________
Epoch 1/40
57/57 [==============================] - ETA: 0s - loss: 1.3404 - accuracy: 0.3506 - binary_accuracy: 0.74822023-08-29 23:47:04.100448: W tensorflow/tsl/framework/cpu_allocator_impl.cc:83] Allocation of 1889402880 exceeds 10% of free system memory.
…
Found 200 validated image filenames.
2023-08-30 15:24:15.621141: I tensorflow/core/platform/cpu_feature_guard.cc:182] This TensorFlow binary is optimized to use available CPU instructions in performance-critical operations.
To enable the following instructions: SSE SSE2 SSE3 SSE4.1 SSE4.2 AVX AVX2 FMA, in other operations, rebuild TensorFlow with the appropriate compiler flags.
Model: "sequential"
_________________________________________________________________
 Layer (type)                Output Shape              Param #   
=================================================================
 conv2d (Conv2D)             (None, 126, 126, 32)      896       
                                                                 
 max_pooling2d (MaxPooling2  (None, 63, 63, 32)        0         
 D)                                                              
                                                                 
 conv2d_1 (Conv2D)           (None, 61, 61, 32)        9248      
                                                                 
 max_pooling2d_1 (MaxPoolin  (None, 30, 30, 32)        0         
 g2D)                                                            
                                                                 
 conv2d_2 (Conv2D)           (None, 28, 28, 32)        9248      
                                                                 
 batch_normalization (Batch  (None, 28, 28, 32)        128       
 Normalization)                                                  
                                                                 
 max_pooling2d_2 (MaxPoolin  (None, 14, 14, 32)        0         
 g2D)                                                            
                                                                 
 dropout (Dropout)           (None, 14, 14, 32)        0         
                                                                 
 flatten (Flatten)           (None, 6272)              0         
                                                                 
 dense (Dense)               (None, 64)                401472    
                                                                 
 dropout_1 (Dropout)         (None, 64)                0         
                                                                 
 dense_1 (Dense)             (None, 5)                 325       
                                                                 
=================================================================
Total params: 421317 (1.61 MB)
Trainable params: 421253 (1.61 MB)
Non-trainable params: 64 (256.00 Byte)
_________________________________________________________________
Epoch 1/40
57/57 [==============================] - 64s 1s/step - loss: 0.5124 - accuracy: 0.4433 - binary_accuracy: 0.7817 - val_loss: 0.6022 - val_accuracy: 0.0950 - val_binary_accuracy: 0.7850
…
Found 200 validated image filenames.
2023-08-30 15:53:47.388442: I tensorflow/core/platform/cpu_feature_guard.cc:182] This TensorFlow binary is optimized to use available CPU instructions in performance-critical operations.
To enable the following instructions: SSE SSE2 SSE3 SSE4.1 SSE4.2 AVX AVX2 FMA, in other operations, rebuild TensorFlow with the appropriate compiler flags.
Model: "sequential"
_________________________________________________________________
 Layer (type)                Output Shape              Param #   
=================================================================
 conv2d (Conv2D)             (None, 126, 126, 32)      896       
                                                                 
 max_pooling2d (MaxPooling2  (None, 63, 63, 32)        0         
 D)                                                              
                                                                 
 conv2d_1 (Conv2D)           (None, 61, 61, 32)        9248      
                                                                 
 max_pooling2d_1 (MaxPoolin  (None, 30, 30, 32)        0         
 g2D)                                                            
                                                                 
 conv2d_2 (Conv2D)           (None, 28, 28, 32)        9248      
                                                                 
 max_pooling2d_2 (MaxPoolin  (None, 14, 14, 32)        0         
 g2D)                                                            
                                                                 
 conv2d_3 (Conv2D)           (None, 12, 12, 32)        9248      
                                                                 
 batch_normalization (Batch  (None, 12, 12, 32)        128       
 Normalization)                                                  
                                                                 
 max_pooling2d_3 (MaxPoolin  (None, 6, 6, 32)          0         
 g2D)                                                            
                                                                 
 dropout (Dropout)           (None, 6, 6, 32)          0         
                                                                 
 flatten (Flatten)           (None, 1152)              0         
                                                                 
 dense (Dense)               (None, 64)                73792     
                                                                 
 dropout_1 (Dropout)         (None, 64)                0         
                                                                 
 dense_1 (Dense)             (None, 5)                 325       
                                                                 
=================================================================
Total params: 102885 (401.89 KB)
Trainable params: 102821 (401.64 KB)
Non-trainable params: 64 (256.00 Byte)
_________________________________________________________________
Epoch 1/40
57/57 [==============================] - 22s 362ms/step - loss: 0.5631 - accuracy: 0.3456 - binary_accuracy: 0.7510 - val_loss: 0.5906 - val_accuracy: 0.6950 - val_binary_accuracy: 0.7850
…
